drowsiness_model_smallestV3.pth (torch, 48240 bytes, 8 tensors)

fc1.weight f4 [128, 5]
-0.42406675 0.094743505 0.95845234 0.18830158 -0.35299754 0.18682371 0.12734666 -0.47595417
-0.018336864 0.011887427 0.34342954 -0.2755307 0.5991576 -0.011216057 0.15555882 0.063651204
0.30569947 0.66996205 0.102501765 0.08520677 0.13137282 0.24611546 -0.051323492 -0.07083534
0.7536701 -0.19724995 -0.50085044 -0.3016824 -0.51636124 -0.07247445 -0.0882963 -0.47482902
0.49046925 -0.12474462 -0.24215107 0.696626 -0.166023 -0.28876647 -0.071912706 0.34327284
0.23127027 -0.31541127 0.26350516 -0.12155683 0.36447203 0.22362672 -0.25471446 -0.5315083
0.23521659 0.039119016 0.10091002 -0.13535957 -0.23804207 -0.028769044 -0.765318 0.39690962
-0.07623796 -0.12672189 0.38588077 -0.1041893 -0.33902335 -0.34916514 -0.09653942 -0.39477983
0.638984 -0.42575306 -0.4445324 0.18692195 -0.31741744 -0.03774988 -0.61768055 -0.33993354
0.54042846 -0.24769552 0.18310486 0.18708502 -0.35768747 -0.13635942 -0.3846725 0.009734107
-0.09270322 -0.30847892 -0.05620987 0.16392085 0.040818922 0.54374385 0.44707844 -0.17572299
-0.21754833 0.45614466 0.22106542 -0.23935 -0.12866838 0.34699348 -0.22399682 0.039144367
0.30128825 -0.5516077 -0.112721205 0.5043033 0.37314448 0.22116008 -0.4604014 0.14596461
0.69525516 0.5304031 0.54336435 -0.46244147 0.3782569 0.0038870615 0.33903074 0.350053
0.32932457 -0.33307958 0.03575496 0.05410186 -0.17172007 -0.046656195 -0.3413652 -0.77813154
0.23708043 0.016107278 -0.30692244 -0.096446976 -0.019004295 -0.021973334 0.2051309 -0.112550385
0.019609395 -1.0381418 -0.49434388 -0.009882363 0.494376 0.18677242 -0.05669791 0.19913356
0.45700923 0.66135293 0.1409186 -0.5217504 -0.14771464 0.5444498 0.036179334 0.3129776
0.32150674 0.11427067 -0.09341707 -0.19426084 -0.19452202 -0.12294011 0.52148724 -0.109578185
0.15753411 -0.014538022 0.2901479 -0.1394051 -0.014077406 0.7351706 0.28990015 -0.50324064
-0.17140204 -0.2447439 -0.07312348 -0.49675113 0.2105373 -0.045326274 -0.37697658 0.43680143
0.3045193 -0.44812042 -0.160441 -0.31704935 0.22526212 0.20735972 0.43582126 0.093830235
0.14276853 0.18876575 0.02493711 -0.05673604 -0.21714689 0.16119358 0.2924944 -0.14723377
0.64645433 0.16033387 0.3807167 0.023489386 0.353791 -0.6768118 -0.040854324 0.114373975
-0.4069774 -0.5588891 -0.6649449 -0.069186516 0.2571197 0.46841717 0.17895684 0.62284756
0.33308092 0.2079099 -0.15155908 -0.36633667 -0.06444989 -0.08371163 0.29237822 0.22648117
-0.44272035 0.026036203 -0.05822473 -0.26410502 0.036398064 0.3566327 -0.083688825 0.3174666
0.55013585 0.41929772 0.43284422 0.52052 -0.3603247 -0.018909896 0.33347726 0.28248948
-0.10065031 0.8045973 -0.32637492 0.14879501 0.1733524 0.4008666 -0.30261245 -0.23705997
-0.32197744 0.40468636 0.7594065 0.34933323 -0.026050411 -0.64335036 -0.14212242 -0.47509608
0.45884183 0.36691874 -0.28499496 -0.4200332 0.09896856 0.32151854 0.30110335 0.122465044
-0.42473245 -0.29734963 -0.08724423 -0.034824863 -0.6209325 0.0075118137 0.38538593 0.31701887
00000000: 471f d9be e208 c23d 225d 753f 21d2 403e
00000010: 18bc b4be b74e 3f3e 2a67 023e 44b0 f3be
00000020: 3137 96bc 7cc3 423c ffd5 af3e 5c12 8dbe
00000030: 6462 193f 8ec3 37bc d04a 1f3e 905b 823d
00000040: a484 9c3e a282 2b3f 72ec d13d e380 ae3d
00000050: 9986 063e b105 7c3e 9538 52bd 1e12 91bd
00000060: 86f0 403f e4fb 49be bc37 00bf 1e76 9abe
00000070: 4030 04bf 7c6d 94bd b1d4 b4bd ca1c f3be
00000080: c91e fb3e 1b7a ffbd 73f6 77be 1556 323f
00000090: ef01 2abe 33d9 93be f846 93bd 75c1 af3e
000000a0: 1dd2 6c3e 967d a1be 26ea 863e caf2 f8bd
000000b0: 149c ba3e 67fe 643e ef69 82be ee10 08bf
000000c0: 9edc 703e 433b 203d eaa9 ce3d b39b 0abe
000000d0: 4dc1 73be 0fad ebbc e1eb 43bf bd37 cb3e
000000e0: a622 9cbd 62c3 01be 2a92 c53e 3361 d5bd
000000f0: 7894 adbe c6c5 b2be 76b6 c5bd 9520 cabe
00000100: 7594 233f 4efc d9be c099 e3be 7868 3f3e
00000110: 8a84 a2be 9e9f 1abd 5020 1ebf c50b aebe
00000120: 8559 0a3f e5a3 7dbe d77f 3b3e 3793 3f3e
00000130: d022 b7be cea1 0bbe cbf3 c4be ce7b 1f3c
00000140: 30db bdbd f3f0 9dbe 523c 66bd deda 273e
00000150: be31 273d cc32 0b3f 77e7 e43e baf0 33be
00000160: fdc4 5ebe cb8b e93e f95e 623e 2b18 75be
00000170: a5c1 03be 21a9 b13e 6c5f 65be d855 203d
00000180: 7442 9a3e 2a36 0dbf 60da e6bd 051a 013f
00000190: cb0c bf3e ca77 623e bbb9 ebbe bf77 153e
000001a0: 3efc 313f 7fc8 073f ed19 0b3f 21c5 ecbe
000001b0: e3aa c13e 12be 7e3b 7095 ad3e 263a b33e
000001c0: 3b9d a83e 6889 aabe cb73 123d e999 5d3d
000001d0: 63d7 2fbe 911a 3fbd 6bc7 aebe a133 47bf
000001e0: 36c5 723e 69f3 833c f024 9dbe fe85 c5bd
000001f0: e5ae 9bbc 6c01 b4bc d60d 523e d180 e6bd
00000200: e2a3 a03c d5e1 84bf a41a fdbe a2e9 21bc
00000210: da1e fd3e 4541 3f3e 113c 68bd abe9 4b3e
00000220: 1dfd e93e 6d4e 293f f74c 103e 6f91 05bf
00000230: 8242 17be 1061 0b3f c830 143d 9a3e a03e
00000240: 889c a43e be06 ea3d 7351 bfbd 50ec 46be
00000250: c830 47be 06c8 fbbd 3080 053f 876a e0bd
00000260: 9f50 213e e230 6ebc 448e 943e 36c0 0ebe
00000270: eca4 66bc 2434 3c3f cb6d 943e 61d4 00bf
00000280: 0484 2fbe 259e 7abe c3c1 95bd 2a56 febe
00000290: 1797 573e 0ba8 39bd 1303 c1be 70a4 df3e
000002a0: f4e9 9b3e 0a70 e5be a54a 24be 4b54 a2be
000002b0: 1dab 663e 1b56 543e f723 df3e 112a c03d
000002c0: ea31 123e cf4b 413e e948 cc3c 0d64 68bd
000002d0: c15b 5ebe ee0f 253e d3c1 953e 73c4 16be
000002e0: 087e 253f 902e 243e 4ded c23e d06c c03c
000002f0: 1824 b53e 8a43 2dbf dd56 27bd e73c ea3d
00000300: 575f d0be 5b13 0fbf d439 2abf a9b1 8dbd
00000310: 31a5 833e 60d4 ef3e 7640 373e f072 1f3f
00000320: 9589 aa3e 55e6 543e 4e32 1bbe 7b90 bbbe
00000330: 4efe 83bd 0171 abbd 99b2 953e aeea 673e
00000340: 3eac e2be e049 d53c 0e7d 6ebd c638 87be
00000350: 2316 153d 9098 b63e 0c65 abbd fb8a a23e
00000360: b4d5 0c3f 31ae d63e c29d dd3e cc40 053f
00000370: 7b7c b8be ede8 9abc 88bd aa3e 76a2 903e
00000380: c021 cebd 17fa 4d3f 9d1a a7be b85d 183e
00000390: 4b83 313e 633e cd3e 05f0 9abe d9bf 72be
000003a0: 3ada a4be 0d33 cf3e 7768 423f cedb b23e
000003b0: ac67 d5bc 9cb2 24bf 8a88 11be cb3f f3be
000003c0: 51ed ea3e c6dc bb3e dcea 91be 970e d7be
000003d0: 07b0 ca3d 149e a43e 382a 9a3e f4ce fa3d
000003e0: 8876 d9be 363e 98be 1aad b2bd 84a4 0ebd
000003f0: 6ff5 1ebf a925 f63b 4e51 c53e 4c50 a23e

fc1.bias f4 [128]
0.041869927 -0.057651665 -0.15389249 0.14719737 -0.5738483 -0.4372088 -0.2435368 0.009950659
-0.07500142 0.14508699 -0.7843825 0.07185957 -0.6224212 0.38741678 0.17524208 0.07347316
-0.0023609228 -0.44904166 0.19530848 0.28531414 0.40157244 -0.42318234 -0.04268117 -0.3912841
0.038961463 -0.34679043 -0.11907956 -0.68587345 -0.6738577 -0.00692632 -0.35145736 0.006961232
-0.2631468 -0.9239539 0.07926273 0.22032191 0.5544128 -0.27423376 -0.70616347 -0.026384765
0.15330555 0.34081784 -0.030159544 -0.111693695 0.25610888 0.20436256 -0.8145636 0.10629201
-0.049052425 -0.71398675 -0.10875707 -0.41757885 -0.4810264 0.026668428 0.21701743 0.36832383
0.0197471 0.22648712 -0.13806039 0.06969364 -0.04429624 0.22859108 0.08089124 0.11578233
-0.13794294 0.42241657 0.029983114 -0.150763 0.041247137 0.35926595 0.2555348 -0.07852585
0.08721087 0.26943433 -0.091632746 -0.5630768 0.2804554 -0.617417 -0.7280263 0.2841531
-0.04434911 -0.59927994 0.09506959 -0.4816127 -0.69092387 -0.033596613 -0.0214836 0.013489059
-0.4200397 0.2793807 -0.37570387 0.15677348 -0.18054195 0.1533329 -0.07421557 0.029684162
-0.44475284 -0.36495095 -0.024743404 -0.7450102 -0.65244144 -0.43248025 -0.085954845 0.15507634
0.49004176 0.1608712 0.11343937 -0.5580546 0.3450735 -0.63129866 0.20651491 -0.43005362
0.20748502 0.2999621 0.21837597 -0.26095667 -0.035687696 -0.055150192 -0.65478617 0.13223848
-0.32314855 0.026108103 -0.033145696 -0.12356861 0.043974895 -0.12695104 -0.051233906 -0.18286736
00000000: cd7f 2b3d 2724 6cbd fe95 1dbe e8ba 163e
00000010: b9e7 12bf d5d9 dfbe b661 79be 1708 233c
00000020: 589a 99bd af91 143e 4bcd 48bf 1c2b 933d
00000030: ff56 1fbf 7e5b c63e a972 333e 1979 963d
00000040: b6b9 1abb cae8 e5be f2fe 473e b214 923e
00000050: e79a cd3e 5bab d8be 73d2 2ebd 6456 c8be
00000060: 0e96 1f3d 848e b1be fcdf f3bd 6795 2fbf
00000070: f081 2cbf 2ff6 e2bb 38f2 b3be 0c1b e43b
00000080: 2dbb 86be 3e88 6cbf 8054 a23d 119c 613e
00000090: ffed 0d3f 5e68 8cbe 21c7 34bf dd24 d8bc
000000a0: 21fc 1c3e ad7f ae3e 2611 f7bc aabf e4bd
000000b0: b420 833e 6b44 513e 3d87 50bf a0af d93d
000000c0: 32eb 48bd d6c7 36bf 07bc debd e5cc d5be
000000d0: 1849 f6be bf77 da3c d139 5e3e f194 bc3e
000000e0: acc4 a13c 3dec 673e b45f 0dbe 8abb 8e3d
000000f0: f96f 35bd c813 6a3e 4eaa a53d 491f ed3d
00000100: ea40 0dbe fc46 d83e 269f f53c 9e61 1abe
00000110: c2f2 283d b5f1 b73e 75d5 823e 29d2 a0bd
00000120: 9d9b b23d 4cf3 893e f3a9 bbbd cd25 10bf
00000130: da97 8f3e 0a0f 1ebf ee5f 3abf 847c 913e
00000140: 6aa7 35bd 696a 19bf d8b3 c23d f195 f6be
00000150: 63e0 30bf 9a9c 09bd 60fe afbc 3701 5d3c
00000160: 720f d7be fd0a 8f3e 425c c0be 3a89 203e
00000170: fddf 38be 4d03 1d3e 55fe 97bd 332c f33c
00000180: a5b6 e3be dada babe aeb2 cabc fdb8 3ebf
00000190: 6706 27bf 0d6e ddbe 1809 b0bd 55cc 1e3e
000001a0: c1e6 fa3e 6bbb 243e e752 e83d abdc 0ebf
000001b0: 79ad b03e ca9c 21bf a578 533e fd2f dcbe
000001c0: f476 543e a294 993e f39d 5f3e 1d9c 85be
000001d0: 432d 12bd 2be5 61bd 11a0 27bf 8669 073e
000001e0: ba73 a5be a9e0 d53c c8c3 07bd 8a11 fdbd
000001f0: 051f 343d 74ff 01be a5da 51bd 9541 3bbe

fc2.weight f4 [64, 128]
-0.37370992 -0.13443743 -0.031897485 0.121524245 -0.30124927 0.24276468 -0.0354016 0.021097803
-0.13238212 0.1357876 0.18548915 -0.5807955 -0.07668271 0.19337776 -0.16808058 -0.03614846
0.11308568 -0.22554903 -0.1856394 0.08853838 0.10976442 -1.5079736 0.1715737 0.35475412
-0.051236663 -0.30978718 0.1266406 0.4637036 0.022036107 -0.15208729 0.06951274 -0.2559064
-0.33928978 1.2830228 -0.1458639 -0.105942465 -0.020186301 -0.6881283 0.46196887 -0.07184864
-0.038745455 -0.023732996 0.014078633 -0.383579 0.104001485 -0.03503668 -0.1275811 0.054792613
-0.06668334 -0.33844665 -0.023891857 0.055792864 -0.028560668 0.062095296 -0.3652755 -0.11074485
-0.080618486 -0.064456046 0.018044854 0.08903183 0.17571233 0.12173468 -0.013769449 -0.1895871
-0.072171815 0.13826673 -0.021492478 -0.6175452 -0.060125872 -0.07917943 -0.026497565 -0.07430398
0.045035295 0.0029371455 0.14585754 -0.36074826 0.0076376554 -0.054205596 0.20374623 0.0702703
-0.10238792 -0.069786794 0.14630131 0.10252749 -0.39492723 -0.22675814 0.15347028 -0.5651839
0.05949116 0.066204414 -0.23924878 -0.03779579 -0.0059277853 -0.21626128 0.18094033 -0.26617283
0.2329239 -0.34953353 0.16144046 0.34272978 -0.35642204 -0.32598737 0.2037571 0.18162793
0.13149963 0.15441498 -0.05225031 0.5404034 0.11250639 -0.4440357 -0.16672969 0.2036107
0.05953048 0.064948104 -0.07794273 0.3405488 0.027682533 0.15789919 0.019382846 0.0055693504
0.02279786 0.021043357 0.110470526 -0.18148261 -0.11890372 0.180825 0.16651446 0.055205345
0.0036334638 0.060314037 -0.2938437 0.11770268 0.08357156 0.1715204 -0.026501691 0.312692
-0.20604917 0.016901175 -0.064583674 0.09095591 0.4514965 0.067402475 0.016829528 0.1475474
-0.012012645 0.2740357 -0.013963066 -0.003987869 -0.07856117 -0.00876496 -0.2644664 -0.00025144516
-0.017208906 -0.21318966 0.24813859 -0.22138515 -0.22061892 -0.25681767 -0.048010055 0.07692168
0.32513627 1.4571362 -0.09663587 -0.05029395 -0.2270535 -0.17952159 -0.1600222 -0.3326581
-0.07801151 0.05913057 0.15073398 -0.16714792 0.08733799 0.00030132712 -0.6994431 -0.034111716
0.008423132 -0.35916176 -0.24013588 -0.18527704 0.040683225 0.045280244 0.11776072 -0.14516106
0.07541807 -0.0660925 -0.037592582 0.08727708 0.17161658 0.045817513 -0.14181484 -0.12509719
0.06274574 0.08516509 0.3091351 -0.08205762 -0.17400278 0.09488914 0.14461488 -0.074589886
-0.08588853 -0.076823875 0.12553936 0.2522582 0.014957995 -0.54047185 -0.17132969 -0.035615638
-0.2084637 -0.4561855 0.17252114 0.32695514 -0.585334 0.020226646 -0.06737843 0.09510325
-0.01632733 -0.08152291 -0.17242835 0.082073234 0.4165346 0.013255527 -0.40858752 0.23014118
0.090248294 -0.36382487 -0.5424825 0.4944685 0.06374364 0.17058526 -0.07569132 -0.08202316
0.20885234 0.069934614 0.18907559 0.043736625 -0.07883783 0.2321029 0.40271717 -0.11337808
-0.053703807 0.021284556 0.017588394 -0.087324105 0.07425218 -0.38034174 -0.21458256 0.029778305
0.47662264 0.15640306 0.033049677 -0.15743662 0.12516657 0.061213583 -0.044100605 -0.26599377
00000000: e856 bfbe f7a9 09be f0a6 02bd b4e1 f83d
00000010: 583d 9abe 4e97 783e 4501 11bd 4dd5 ac3c
00000020: 2e8f 07be e80b 0b3e def0 3d3e 04af 14bf
00000030: d30b 9dbd d204 463e 511d 2cbe 6810 14bd
00000040: 7799 e73d 53f6 66be 4118 3ebe 9c53 b53d
00000050: 2bcc e03d 4705 c1bf 04b1 2f3e 55a2 b53e
00000060: 89dd 51bd 6d9c 9ebe 13ae 013e 8f6a ed3e
00000070: 1185 b43c c5bc 1bbe b25c 8e3d 2a06 83be
00000080: 64b7 adbe 173a a43f 595d 15be 5df8 d8bd
00000090: be5d a5bc 2d29 30bf 2f87 ec3e 6125 93bd
000000a0: 8eb3 1ebd b36b c2bc 11aa 663c 7764 c4be
000000b0: bbfe d43d 9f82 0fbd 9fa4 02be 386e 603d
000000c0: 4691 88bd e148 adbe dbb8 c3bc 0f87 643d
000000d0: 10f8 e9bc a357 7e3d 6405 bbbe 32ce e2bd
000000e0: 4e1b a5bd 8801 84bd cdd2 933c 5256 b63d
000000f0: efed 333e 0850 f93d 4199 61bc 1f23 42be
00000100: d1ce 93bd cb95 0d3e fe10 b0bc 7117 1ebf
00000110: 8c46 76bd d328 a2bd 6c11 d9bc af2c 98bd
00000120: ee76 383d 207d 403b ae5b 153e ffb3 b8be
00000130: 4c45 fa3b b006 5ebd daa2 503e e0e9 8f3d
00000140: c2b0 d1bd 61ec 8ebd 03d0 153e eff9 d13d
00000150: e733 cabe 4933 68be 5027 1d3e e4af 10bf
00000160: 01ad 733d 2e96 873d a2fd 74be c2cf 1abd
00000170: de3d c2bb 9973 5dbe 6c48 393e ce47 88be
00000180: 9a83 6e3e 0ff6 b2be a650 253e 477a af3e
00000190: f37c b6be d1e7 a6be b4a5 503e acfc 393e
000001a0: d7a7 063e f61e 1e3e 6c04 56bd e157 0a3f
000001b0: c069 e63d a658 e3be 30bb 2abe 537f 503e
000001c0: 3cd6 733d 8303 853d 70a0 9fbd 6a5c ae3e
000001d0: 7bc6 e23c 53b0 213e c6c8 9e3c 197f b63b
000001e0: 94c2 ba3c 1e63 ac3c 5f3e e23d 94d6 39be
000001f0: cb83 f3bd 302a 393e c482 2a3e 001f 623d
00000200: 681f 6e3b da0b 773d ae72 96be 1a0e f13d
00000210: 9127 ab3d 0ba3 2f3e 131a d9bc 2a19 a03e
00000220: 8efe 52be 5574 8a3c 7244 84bd 1847 ba3d
00000230: 8d2a e73e 4f0a 8a3d 14de 893c aa16 173e
00000240: afd0 44bc 684e 8c3e 58c5 64bc abac 82bb
00000250: aee4 a0bd e89a 0fbc 2468 87be 66d4 83b9
00000260: b1f9 8cbc 644e 5abe 0b18 7e3e cab2 62be
00000270: ede9 61be 9b7d 83be 31a6 44bd 1d89 9d3d
00000280: 4378 a63e 7083 ba3f 07e9 c5bd 0701 4ebd
00000290: b680 68be 82d4 37be dcdc 23be 2a52 aabe
000002a0: 80c4 9fbd e632 723d 025a 1a3e d328 2bbe
000002b0: 43de b23d 71fb 9d39 b40e 33bf bab8 0bbd
000002c0: 2d01 0a3c 0de4 b7be 2ee6 75be 44b9 3dbe
000002d0: 74a3 263d c777 393d 882c f13d 1aa5 14be
000002e0: ca74 9a3d 815b 87bd aefa 19bd 53be b23d
000002f0: 42bc 2f3e 25ab 3b3d e937 11be 7a19 00be
00000300: d780 803d 096b ae3d f546 9e3e d30d a8bd
00000310: c92d 32be 3d55 c23d ec15 143e 95c2 98bd
00000320: 53e6 afbd d655 9dbd 648d 003e fd27 813e
00000330: 6112 753c 5d5c 0abf 0d71 2fbe b4e1 11bd
00000340: 8277 55be 2591 e9be 62a9 303e aa66 a73e
00000350: 73d8 15bf 5ab2 a53c b4fd 89bd 7ec5 c23d
00000360: e5c0 85bc 7cf5 a6bd 0f91 30be 0316 a83d
00000370: 0644 d53e b62d 593c 6232 d1be 21aa 6b3e
00000380: 19d4 b83d 4147 babe 22e0 0abf fa2a fd3e
00000390: 078c 823d e7ad 2e3e 0d04 9bbd c2fb a7bd
000003a0: 63dd 553e e139 8f3d 089d 413e 2d25 333d
000003b0: ba75 a1bd 62ac 6d3e f230 ce3e c432 e8bd
000003c0: 86f8 5bbd f35c ae3c 8915 903c fbd6 b2bd
000003d0: 8711 983d 27bc c2be 88bb 5bbe a2f1 f33c
000003e0: e207 f43e 2028 203e 195f 073d 1137 21be
000003f0: aa2b 003e 18bb 7a3d d6a2 34bd 5630 88be

fc2.bias f4 [64]
0.078863874 0.085447274 -0.052038327 0.21430166 -0.14122348 -0.09585639 -0.030118773 0.26513618
0.21439992 0.302546 0.44877943 0.08720147 0.10426499 0.14718153 0.08456676 -0.38504747
-0.053386405 -0.030411828 -0.01976896 0.0037040752 0.03530873 -0.27178824 0.07894939 0.11402539
-0.07894511 -0.08417089 0.27933368 0.05550884 0.016409285 -0.0024443723 0.23293462 -0.09584704
-0.047858376 0.116880454 0.07381993 -0.059698496 -0.057271805 -0.012497642 0.12323654 0.18615608
0.39051723 -0.07660611 -0.026286604 0.0398198 -0.17796965 -0.09190068 -0.04325684 -0.13094825
0.059429202 0.032481447 -0.02847842 -0.08157145 -0.08119379 0.26698935 -0.20946635 -0.086136356
0.1650703 0.40411922 0.09229497 -0.06851879 0.007764843 0.028871812 0.3025807 -0.20118245
00000000: 6283 a13d fbfe ae3d 2426 55bd e571 5b3e
00000010: e39c 10be 5b50 c4bd a5bb f6bc eebf 873e
00000020: a78b 5b3e 4fe7 9a3e 6bc6 e53e af96 b23d
00000030: e288 d53d c1b6 163e 5631 ad3d f124 c5be
00000040: b4ab 5abd 3a22 f9bc 84f2 a1bc 12c0 723b
00000050: e39f 103d d427 8bbe 38b0 a13d 2586 e93d
00000060: f9ad a1bd ca61 acbd d304 8f3e 3d5d 633d
00000070: c46c 863c c331 20bb 6a86 6e3e 744b c4bd
00000080: 2507 44bd 055f ef3d e72e 973d 6986 74bd
00000090: d795 6abd e9c2 4cbc 7063 fc3d b39f 3e3e
000000a0: e0f1 c73e aae3 9cbd 0157 d7bc 161a 233d
000000b0: ad3d 36be 6c36 bcbd 162e 31bd 4c17 06be
000000c0: 096c 733d 440b 053d 934b e9bc ef0e a7bd
000000d0: ee48 a6bd d4b2 883e 597e 56be 4268 b0bd
000000e0: 3008 293e b7e8 ce3e 2505 bd3d 9453 8cbd
000000f0: 3970 fe3b 9484 ec3c dceb 9a3e c602 4ebe

fc3.weight f4 [32, 64]
-0.3178274 0.15062772 0.12313804 -0.5364224 0.20520951 0.038058907 -0.44646108 0.06575111
0.21774563 0.13674876 -0.39161506 -0.48873332 -0.31350613 0.102782495 0.400744 0.035522826
-0.043244287 0.07361282 0.08697735 -0.45501992 -0.13130343 0.05389706 0.08788841 -0.23975843
-0.40897545 -0.115578406 0.34848735 -0.08701998 0.27861282 -0.12678677 -0.011064536 0.052291606
-0.14937867 0.2621192 0.42629352 -0.056654185 -0.4750873 0.26096842 0.2780668 -0.13621475
-0.12814286 0.024536876 0.059985295 0.1274351 0.03160964 -0.09027823 0.20038576 0.57974964
-0.38208497 -0.6973238 -0.057517394 0.21389264 0.106671914 0.1400135 0.39994538 0.09502368
0.28275302 0.07524454 -0.22143511 0.028467795 -0.1562255 0.04819016 -0.12802947 0.06862763
0.19694795 0.2256332 -0.10378153 -0.24152899 -0.10912788 0.042302415 -0.033569764 0.17606601
0.110959664 0.17909566 0.33706498 0.018067164 -0.25839424 0.24567726 0.31640038 -0.10235178
0.055629358 0.4492227 -0.19762555 -0.6424655 0.007952276 -0.21665189 -0.09885616 -0.1398265
-0.061317667 0.0930914 0.1971928 0.16407727 0.41335514 2.1364132e-05 0.46866834 -0.10804129
0.16892062 -0.13048652 -0.08730612 -0.12010549 -1.2914841 0.35717165 0.16586362 0.034386206
0.3257542 0.044308882 0.021144452 -0.18963772 0.0007836096 0.07635189 0.076341 -0.0542787
0.16361806 -0.13099174 0.038459197 0.021255696 0.024467196 0.15260042 0.13350824 -0.010651051
0.046661954 0.44466966 0.06293616 -0.022993445 0.24876739 0.06686093 0.2716493 0.8711169
0.00030355042 -0.063865885 -1.012389 0.28635696 0.13590395 -0.015047118 0.21020745 0.12274873
0.5846261 -0.05562933 -0.055714417 0.048381004 0.35647404 0.038026527 -0.17475936 0.894358
0.040996328 -0.65046847 -1.3100495 -0.22022851 -0.23506117 1.0809017 0.34465432 0.0986163
0.06527173 -0.06535401 -0.092030294 -0.09076086 -0.9406731 -0.9641452 -0.008640057 -0.08069692
0.060130328 -0.3205269 -1.0260658 -0.105574206 -0.0046624816 0.14165996 -0.077755265 0.07740166
0.06084108 0.05687961 0.042436343 0.238619 0.26566792 0.09436867 -0.25021204 -0.41451752
-0.12971485 0.515421 0.060171425 -0.1059105 0.090011984 0.19715878 -0.01143353 -0.021932391
0.061531004 0.30923545 0.07279588 0.038155988 0.25608134 -0.08420251 0.04749528 -0.22603694
-0.23182093 0.037471443 -0.3467624 -0.21002854 0.20205805 -0.013789411 -0.13796796 0.20491385
0.12648307 0.0046330313 0.13297574 -0.17056358 -0.23400974 0.111000575 0.36701217 -0.2565371
-0.060915086 0.32212356 -0.20559281 -0.4016405 0.12823503 -0.514308 0.073914334 -0.3076372
0.03562508 -0.052757874 0.21244773 -0.01930821 0.22210509 0.058287684 0.08257981 -0.10176908
-0.25790438 0.062852666 0.30646938 -0.10846904 -0.65569913 0.3649985 0.19791503 -0.21322313
0.12073618 0.051352084 -0.068665124 0.15141815 -0.42966306 0.07538744 0.25278112 0.16637895
-0.07610999 -0.3049014 -0.03155522 0.29152098 -0.1927901 0.19191475 0.24326546 -0.0641295
0.14866734 0.430116 -0.1505128 -0.012336059 -0.2759377 0.057486493 0.1615975 0.69184357
00000000: 46ba a2be 273e 1a3e cc2f fc3d fa52 09bf
00000010: 7122 523e a8e3 1b3d 8c96 e4be 85a8 863d
00000020: b6f8 5e3e de07 0c3e c581 c8be 413b fabe
00000030: e083 a0be a17f d23d 512e cd3e 6280 113d
00000040: ec20 31bd 51c2 963d 2e21 b23d 5ff8 e8be
00000050: 6874 06be 2ac3 5c3d d7fe b33d 3c83 75be
00000060: 3b65 d1be 5fb4 ecbd ef6c b23e 8837 b2bd
00000070: 57a6 8e3e 64d4 01be 0748 35bc b92f 563d
00000080: b9f6 18be 7d34 863e 2543 da3e 380e 68bd
00000090: a53e f3be a79d 853e c65e 8e3e e17b 0bbe
000000a0: e237 03be 8f01 c93c 24b3 753d 597e 023e
000000b0: 1c79 013d cbe3 b8bd ed31 4d3e 796a 143f
000000c0: a4a0 c3be d083 32bf 5c97 6bbd ac06 5b3e
000000d0: ce76 da3d b35f 0f3e a4c5 cc3e c69b c23d
000000e0: 01c5 903e cf19 9a3d e3bf 62be 4b35 e93c
000000f0: 94f9 1fbe 0c63 453d 281a 03be a58c 8c3d
00000100: b9ac 493e 640c 673e 698b d4bd 6053 77be
00000110: 707e dfbd 4c45 2d3d 7380 09bd a64a 343e
00000120: d23e e33d da64 373e c893 ac3e 9701 943c
00000130: 404c 84be d292 7b3e 3bff a13e cf9d d1bd
00000140: 9cdb 633d 8500 e63e 5a5e 4abe 9e78 24bf
00000150: 434a 023c fed9 5dbe 1975 cabd ae2e 0fbe
00000160: 3c28 7bbd b4a6 be3d e9ec 493e df03 283e
00000170: 49a3 d33e 2037 b337 4cf5 ef3e c044 ddbd
00000180: 87f9 2c3e 429e 05be 8dcd b2bd def9 f5bd
00000190: 5a4f a5bf 34df b63e 27d8 293e 8dd8 0c3d
000001a0: 41c9 a63e 3b7d 353d 2137 ad3c 6430 42be
000001b0: 266b 4d3a 615e 9c3d ac58 9c3d 5853 5ebd
000001c0: 7e8b 273e b322 06be 6487 1d3d 6d20 ae3c
000001d0: 6e6f c83c 4943 1c3e 62b6 083e bf81 2ebc
000001e0: 9b20 3f3d beab e33e ace4 803d c05c bcbc
000001f0: e1bc 7e3e 62ee 883d 9e15 8b3e 8401 5f3f
00000200: d925 9f39 1ecc 82bd f695 81bf 619d 923e
00000210: 682a 0b3e 3088 76bc 9f40 573e b063 fb3d
00000220: 0eaa 153f 95db 63bd cd34 64bd 292b 463d
00000230: c483 b63e b4c1 1b3d 1ef4 32be a5f4 643f
00000240: c4eb 273d 1a85 26bf b4af a7bf 9583 61be
00000250: e0b3 70be fd5a 8a3f 8876 b03e 58f7 c93d
00000260: 2fad 853d 53d8 85bd 617a bcbd d4e0 b9bd
00000270: f4cf 70bf 38d2 76bf 078f 0dbc 6d44 a5bd
00000280: 384b 763d 1a1c a4be 2056 83bf 4a37 d8bd
00000290: bbc7 98bb 4f0f 113e 273e 9fbd c384 9e3d
000002a0: 7f34 793d 98fa 683d bbd1 2d3d 8a58 743e
000002b0: a005 883e 5c44 c13d cb1b 80be a43b d4be
000002c0: f8d3 04be a1f2 033f 5076 763d 9be7 d8bd
000002d0: 3458 b83d fee3 493e b353 3bbc 8fab b3bc
000002e0: ef07 7c3d 1c54 9e3e 0216 953d 7449 1c3d
000002f0: 181d 833e 5e72 acbd 698a 423d 3a76 67be
00000300: 7762 6dbe a87b 193d d78a b1be b911 57be
00000310: 4ee8 4e3e fbec 61bc 7947 0dbe f0d4 513e
00000320: c784 013e afd0 973b cb2a 083e 38a8 2ebe
00000330: 40a0 6fbe 4554 e33d 05e9 bb3e d558 83be
00000340: 1982 79bd 61ed a43e ec86 52be d3a3 cdbe
00000350: 0b50 033e b0a9 03bf 6660 973d a082 9dbe
00000360: 9beb 113d a418 58bd e68b 593e 402c 9ebc
00000370: 846f 633e 11bf 6e3d 9a1f a93d 4f6c d0bd
00000380: 0b0c 84be e6b8 803d 8ee9 9c3e 0425 debd
00000390: e6db 27bf 15e1 ba3e 3daa 4a3e 2a57 5abe
000003a0: 8844 f73d 9056 523d 4da0 8cbd 5c0d 1b3e
000003b0: ccfc dbbe bb64 9a3d 876c 813e 3e5f 2a3e
000003c0: 8edf 9bbd 091c 9cbe 0c40 01bd 3d42 953e
000003d0: c56a 45be 4d85 443e 951a 793e 5456 83bd
000003e0: 403c 183e 2a38 dc3e 0720 1abe 2e1d 4abc
000003f0: b547 8dbe f576 6b3d d179 253e a91c 313f

fc3.bias f4 [32]
0.06842455 0.117133535 -0.21615441 -0.071326934 -0.009312068 -0.13611823 0.07993846 -0.0020484729
0.23820283 -0.03706765 -0.09289432 -0.35269183 -0.09324532 0.16617693 0.20132719 -0.31572652
0.16646 0.38468403 0.11604562 0.06433045 0.016433347 0.10342142 0.096636266 0.19697295
0.06028298 -0.008788428 0.23690602 0.06876244 0.18508805 0.015359235 -0.34200308 -0.030017968
00000000: 2c22 8c3d b5e3 ef3d 9557 5dbe db13 92bd
00000010: a591 18bc 9462 0bbe c6b6 a33d ac3f 06bb
00000020: 71eb 733e 40d4 17bd 613f bebd 0694 b4be
00000030: 67f7 bebd 492a 2a3e b728 4e3e e8a6 a1be
00000040: 7e74 2a3e 4ef5 c43e 53a9 ed3d afbf 833d
00000050: 3a9f 863c 9cce d33d 3ce9 c53d 47b3 493e
00000060: 49eb 763d 57fd 0fbc 7e97 723e 52d3 8c3d
00000070: b987 3d3e 4da5 7b3c 071b afbe 3ee8 f5bc

fc4.weight f4 [3, 32]
-0.021074818 -0.48384428 -0.019084748 -0.30853584 -0.52183515 -0.79196537 0.43440595 0.018257195
-0.56946987 0.8037339 -0.3696649 -0.10856013 0.19906165 0.8673525 0.37457561 0.019131364
0.9293656 0.6154959 -0.5590971 -0.13511762 0.22069924 -0.6731929 0.2981978 0.10687487
0.49705386 -0.13402952 0.67697453 -0.494664 0.9449692 0.4475327 -1.059995 0.40969098
0.2984871 0.348837 -1.3406715 0.44287872 0.100409165 0.4532943 -0.60168576 -0.08129298
0.05315066 -1.8271513 -0.07859474 0.75548315 -1.0268337 -0.857131 -0.29281434 -0.72213554
-1.0499845 -0.059516396 0.14726573 0.441383 -0.65685856 0.6244498 0.17525913 -0.4992413
-0.6159345 0.07427561 -0.30553466 0.24063028 -0.7668515 0.49489528 0.87565213 -0.7529304
-0.8409482 0.10197765 0.7717828 -0.005758111 0.17105156 0.19858491 0.257455 -0.17449588
0.21272315 0.6690477 0.08924215 -0.792128 0.69273436 -0.00271713 0.15410614 0.9582337
-0.3445562 -0.58776605 0.19678414 -0.8143434 0.36015642 -0.459063 -0.22080116 0.40520838
0.0740567 -0.005610186 -0.7986675 0.0056566405 -0.56774867 -1.1174042 0.33589232 0.47444817
00000000: 19a5 acbc 70ba f7be 9e57 9cbc 69f8 9dbe
00000010: fd96 05bf 3ebe 4abf 756a de3e 1d90 953c
00000020: c7c8 11bf 81c1 4d3f b844 bdbe c654 debd
00000030: d1d6 4b3e d00a 5e3f 60c8 bf3e 61b9 9c3c
00000040: e7ea 6d3f 2491 1d3f fd20 0fbf 465c 0abe
00000050: fbfe 613e 5f56 2cbf 62ad 983e 36e1 da3d
00000060: d87d fe3e 093f 09be 344e 2d3f 9a44 fdbe
00000070: 80e9 713f 0223 e53e ebad 87bf 04c3 d13e
00000080: 4dd3 983e c39a b23e 209b abbf 00c1 e23e
00000090: 52a3 cd3d 3116 e83e 1408 1abf ef7c a6bd
000000a0: 82b4 593d 18e0 e9bf 47f6 a0bd 5867 413f
000000b0: 496f 83bf f06c 5bbf c3eb 95be e0dd 38bf
000000c0: e465 86bf 77c7 73bd d4cc 163e f4fc e13e
000000d0: e227 28bf f1db 1f3f 2177 333e 8e9c ffbe
000000e0: e2ad 1dbf d01d 983d 0a6f 9cbe c967 763e
000000f0: 6150 44bf ea62 fd3e bd2a 603f 0cc0 40bf
00000100: 6248 57bf a8d9 d03d 8f93 453f 89ae bcbb
00000110: 2428 2f3e d859 4b3e 24d1 833e 0caf 32be
00000120: 19d4 593e b646 2b3f 97c4 b63d e7c8 4abf
00000130: 0a57 313f e011 32bb 00ce 1d3e ce4e 753f
00000140: ac69 b0be d677 16bf c881 493e cf78 50bf
00000150: 6c66 b83e 4e0a ebbe b319 62be 7977 cf3e
00000160: 0aab 973d a7d5 b7bb 7975 4cbf 575b b93b
00000170: fa57 11bf 1a07 8fbf 14fa ab3e dfea f23e

fc4.bias f4 [3]
-0.14530139 0.019272795 -0.19917613
00000000: e3c9 14be fbe1 9d3c d4f4 4bbe
